…
"#checkpoint = torch.load(BASE_DATA_PATH+'tasnet_model_checkpoint_2019-11-08_04:15_e3_a19999.tar')\n","\n","checkpoint = torch.load(BASE_DATA_PATH+'tasnet_model_checkpoint_2019-11-12_00:41_X8_R2_e2_a19999.tar')\n","\n","tasnet.load_state_dict(checkpoint['model_state_dict'])\n","optimizer.load_state_dict(checkpoint['optimizer_state_dict'])\n","epoch = checkpoint['epoch']\n","loss = checkpoint['loss']\n","\n","tasnet.eval() # For inference\n","# - or - continue training:\n","#tasnet.train()"],"execution_count":72,"outputs":[{"output_type":"execute_result","data":{"text/plain":["Net(\n","  (conv1): Conv1d(1, 256, kernel_size=(20,), stride=(20,), padding=(10,), bias=False)\n","  (deconv): ConvTranspose1d(512, 2, kernel_size=(20,), stride=(20,), padding=(10,), groups=2, bias=False)\n","  (layer_norm): LayerNorm((256,), eps=1e-05, elementwise_affine=True)\n","  (bottleneck1): Conv1d(256, 256, kernel_size=(1,), stride=(1,))\n","  (bottleneck2): Conv1d(256, 512, kernel_size=(1,), stride=(1,))\n","  (softmax): Softmax(dim=2)\n","  (resblock1): ResBlock(\n","    (conv1): Conv1d(256, 512, kernel_size=(1,), stride=(1,))\n","    (D_conv): Conv1d(512, 512, kernel_size=(3,), stride=(1,), padding=(1,), groups=512)\n","    (conv2): Conv1d(512, 256, kernel_size=(1,), stride=(1,))\n","    (batch1): BatchNorm1d(512, eps=1e-05, momentum=0.1, affine=True, track_running_stats=True)\n","    (batch2): BatchNorm1d(512, eps=1e-05, momentum=0.1, affine=True, track_running_stats=True)\n","    (prelu1): PReLU(num_parameters=512)\n","    (prelu2): PReLU(num_parameters=512)\n","  )\n","  (resblock2): ResBlock(\n","    (conv1): Conv1d(256, 512, kernel_size=(1,), stride=(1,))\n","    (D_conv): Conv1d(512, 512, kernel_size=(3,), stride=(1,), padding=(2,), dilation=(2,), groups=512)\n","    (conv2): Conv1d(512, 256, kernel_size=(1,), stride=(1,))\n","    (batch1): BatchNorm1d(512, eps=1e-05, momentum=0.1, affine=True, track_running_stats=True)\n","    (batch2): BatchNorm1d(512, eps=1e-05, momentum=0.1, affine=True, track_running_stats=True)\n","    (prelu1): PReLU(num_parameters=512)\n","    (prelu2): PReLU(num_parameters=512)\n","  )\n","  (resblock3): ResBlock(\n","    (conv1): Conv1d(256, 512, kernel_size=(1,), stride=(1,))\n","    (D_conv): Conv1d(512, 512, kernel_size=(3,), stride=(1,), padding=(4,), dilation=(4,), groups=512)\n","    (conv2): Conv1d(512, 256, kernel_size=(1,), stride=(1,))\n","    (batch1): BatchNorm1d(512, eps=1e-05, momentum=0.1, affine=True, track_running_stats=True)\n","    (batch2): BatchNorm1d(512, eps=1e-05, momentum=0.1, affine=True, track_running_stats=True)\n","    (prelu1): PReLU(num_parameters=512)\n","    (prelu2): PReLU(num_parameters=512)\n","  )\n","  (resblock4): ResBlock(\n","    (conv1): Conv1d(256, 512, kernel_size=(1,), stride=(1,))\n","    (D_conv): Conv1d(512, 512, kernel_size=(3,), stride=(1,), padding=(8,), dilation=(8,), groups=512)\n","    (conv2): Conv1d(512, 256, kernel_size=(1,), stride=(1,))\n","    (batch1): BatchNorm1d(512, eps=1e-05, momentum=0.1, affine=True, track_running_stats=True)\n","    (batch2): BatchNorm1d(512, eps=1e-05, momentum=0.1, affine=True, track_running_stats=True)\n","    (prelu1): PReLU(num_parameters=512)\n","    (prelu2): PReLU(num_parameters=512)\n","  )\n","  (resblock5): ResBlock(\n","    (conv1): Conv1d(256, 512, kernel_size=(1,), stride=(1,))\n","    (D_conv): Conv1d(512, 512, kernel_size=(3,), stride=(1,), padding=(16,), dilation=(16,), groups=512)\n","    (conv2): Conv1d(512, 256, kernel_size=(1,), stride=(1,))\n","    (batch1): BatchNorm1d(512, eps=1e-05, momentum=0.1, affine=True, track_running_stats=True)\n","    (batch2): BatchNorm1d(512, eps=1e-05, momentum=0.1, affine=True, track_running_stats=True)\n","    (prelu1): PReLU(num_parameters=512)\n","    (prelu2): PReLU(num_parameters=512)\n","  )\n","  (resblock6): ResBlock(\n","    (conv1): Conv1d(256, 512, kernel_size=(1,), stride=(1,))\n","    (D_conv): Conv1d(512, 512, kernel_size=(3,), stride=(1,), padding=(32,), dilation=(32,), groups=512)\n","    (conv2): Conv1d(512, 256, kernel_size=(1,), stride=(1,))\n","    (batch1): BatchNorm1d(512, eps=1e-05, momentum=0.1, affine=True, track_running_stats=True)\n","    (batch2): BatchNorm1d(512, eps=1e-05, momentum=0.1, affine=True, track_running_stats=True)\n","    (prelu1): PReLU(num_parameters=512)\n","    (prelu2): PReLU(num_parameters=512)\n","  )\n","  (resblock7): ResBlock(\n","    (conv1): Conv1d(256, 512, kernel_size=(1,), stride=(1,))\n","    (D_conv): Conv1d(512, 512, kernel_size=(3,), stride=(1,), padding=(64,), dilation=(64,), groups=512)\n","    (conv2): Conv1d(512, 256, kernel_size=(1,), stride=(1,))\n","    (batch1): BatchNorm1d(512, eps=1e-05, momentum=0.1, affine=True, track_running_stats=True)\n","    (batch2): BatchNorm1d(512, eps=1e-05, momentum=0.1, affine=True, track_running_stats=True)\n","    (prelu1): PReLU(num_parameters=512)\n","    (prelu2): PReLU(num_parameters=512)\n","  )\n","  (resblock8): ResBlock(\n","    (conv1): Conv1d(256, 512, kernel_size=(1,), stride=(1,))\n","    (D_conv): Conv1d(512, 512, kernel_size=(3,), stride=(1,), padding=(128,), dilation=(128,), groups=512)\n","    (conv2): Conv1d(512, 256, kernel_size=(1,), stride=(1,))\n","    (batch1): BatchNorm1d(512, eps=1e-05, momentum=0.1, affine=True, track_running_stats=True)\n","    (batch2): BatchNorm1d(512, eps=1e-05, momentum=0.1, affine=True, track_running_stats=True)\n","    (prelu1): PReLU(num_parameters=512)\n","    (prelu2): PReLU(num_parameters=512)\n","  )\n","  (resblock11): ResBlock(\n","    (conv1): Conv1d(256, 512, kernel_size=(1,), stride=(1,))\n","    (D_conv): Conv1d(512, 512, kernel_size=(3,), stride=(1,), padding=(1,), groups=512)\n","    (conv2): Conv1d(512, 256, kernel_size=(1,), stride=(1,))\n","    (batch1): BatchNorm1d(512, eps=1e-05, momentum=0.1, affine=True, track_running_stats=True)\n","    (batch2): BatchNorm1d(512, eps=1e-05, momentum=0.1, affine=True, track_running_stats=True)\n","    (prelu1): PReLU(num_parameters=512)\n","    (prelu2): PReLU(num_parameters=512)\n","  )\n","  (resblock12): ResBlock(\n","    (conv1): Conv1d(256, 512, kernel_size=(1,), stride=(1,))\n","    (D_conv): Conv1d(512, 512, kernel_size=(3,), stride=(1,), padding=(2,), dilation=(2,), groups=512)\n","    (conv2): Conv1d(512, 256, kernel_size=(1,), stride=(1,))\n","    (batch1): BatchNorm1d(512, eps=1e-05, momentum=0.1, affine=True, track_running_stats=True)\n","    (batch2): BatchNorm1d(512, eps=1e-05, momentum=0.1, affine=True, track_running_stats=True)\n","    (prelu1): PReLU(num_parameters=512)\n","    (prelu2): PReLU(num_parameters=512)\n","  )\n","  (resblock13): ResBlock(\n","    (conv1): Conv1d(256, 512, kernel_size=(1,), stride=(1,))\n","    (D_conv): Conv1d(512, 512, kernel_size=(3,), stride=(1,), padding=(4,), dilation=(4,), groups=512)\n","    (conv2): Conv1d(512, 256, kernel_size=(1,), stride=(1,))\n","    (batch1): BatchNorm1d(512, eps=1e-05, momentum=0.1, affine=True, track_running_stats=True)\n","    (batch2): BatchNorm1d(512, eps=1e-05, momentum=0.1, affine=True, track_running_stats=True)\n","    (prelu1): PReLU(num_parameters=512)\n","    (prelu2): PReLU(num_parameters=512)\n","  )\n","  (resblock14): ResBlock(\n","    (conv1): Conv1d(256, 512, kernel_size=(1,), stride=(1,))\n","    (D_conv): Conv1d(512, 512, kernel_size=(3,), stride=(1,), padding=(8,), dilation=(8,), groups=512)\n","    (conv2): Conv1d(512, 256, kernel_size=(1,), stride=(1,))\n","    (batch1): BatchNorm1d(512, eps=1e-05, momentum=0.1, affine=True, track_running_stats=True)\n","    (batch2): BatchNorm1d(512, eps=1e-05, momentum=0.1, affine=True, track_running_stats=True)\n","    (prelu1): PReLU(num_parameters=512)\n","    (prelu2): PReLU(num_parameters=512)\n","  )\n","  (resblock15): ResBlock(\n","    (conv1): Conv1d(256, 512, kernel_size=(1,), stride=(1,))\n","    (D_conv): Conv1d(512, 512, kernel_size=(3,), stride=(1,), padding=(16,), dilation=(16,), groups=512)\n","    (conv2): Conv1d(512, 256, kernel_size=(1,), stride=(1,))\n","    (batch1): BatchNorm1d(512, eps=1e-05, momentum=0.1, affine=True, track_running_stats=True)\n","    (batch2): BatchNorm1d(512, eps=1e-05, momentum=0.1, affine=True, track_running_stats=True)\n","    (prelu1): PReLU(num_parameters=512)\n","    (prelu2): PReLU(num_parameters=512)\n","  )\n","  (resblock16): ResBlock(\n","    (conv1): Conv1d(256, 512, kernel_size=(1,), stride=(1,))\n","    (D_conv): Conv1d(512, 512, kernel_size=(3,), stride=(1,), padding=(32,), dilation=(32,), groups=512)\n","    (conv2): Conv1d(512, 256, kernel_size=(1,), stride=(1,))\n","    (batch1): BatchNorm1d(512, eps=1e-05, momentum=0.1, affine=True, track_running_stats=True)\n","    (batch2): BatchNorm1d(512, eps=1e-05, momentum=0.1, affine=True, track_running_stats=True)\n","    (prelu1): PReLU(num_parameters=512)\n","    (prelu2): PReLU(num_parameters=512)\n","  )\n","  (resblock17): ResBlock(\n","    (conv1): Conv1d(256, 512, kernel_size=(1,), stride=(1,))\n","    (D_conv): Conv1d(512, 512, kernel_size=(3,), stride=(1,), padding=(64,), dilation=(64,), groups=512)\n","    (conv2): Conv1d(512, 256, kernel_size=(1,), stride=(1,))\n","    (batch1): BatchNorm1d(512, eps=1e-05, momentum=0.1, affine=True, track_running_stats=True)\n","    (batch2): BatchNorm1d(512, eps=1e-05, momentum=0.1, affine=True, track_running_stats=True)\n","    (prelu1): PReLU(num_parameters=512)\n","    (prelu2): PReLU(num_parameters=512)\n","  )\n","  (resblock18): ResBlock(\n","    (conv1): Conv1d(256, 512, kernel_size=(1,), stride=(1,))\n","    (D_conv): Conv1d(512, 512, kernel_size=(3,), stride=(1,), padding=(128,), dilation=(128,), groups=512)\n","    (conv2): Conv1d(512, 256, kernel_size=(1,), stride=(1,))\n","    (batch1): BatchNorm1d(512, eps=1e-05, momentum=0.1, affine=True, track_running_stats=True)\n","    (batch2): BatchNorm1d(512, eps=1e-05, momentum=0.1, affine=True, track_running_stats=True)\n","    (prelu1): PReLU(num_parameters=512)\n","    (prelu2): PReLU(num_parameters=512)\n","  )\n",")"]},"metadata":{"tags":[]},"execution_count":72}]},{"cell_type":"markdown","metadata":{"id":"C_79odPkzcBF","colab_type":"text"},"source":["## 3. a) Training NN"]},{"cell_type":"code","metadata":{"colab_type":"code","id":"MyR1iWtvg
…
